data.pth (torch, 6167 bytes, 6 tensors)

l1.weight f4 [8, 75]
-0.023676822 -0.074123695 0.5673301 0.8491474 -0.17185947 -0.30232486 -0.5183542 0.66501707
-0.067718856 -0.5179142 1.0117501 -0.10586908 0.18676798 0.5399337 0.818563 0.23603153
0.5756629 -0.21648096 -0.51853824 0.8792118 0.49649137 0.5451659 0.49408463 -0.0442491
-0.06846313 -0.2878978 0.2812732 0.14023684 -0.021524794 -0.12329153 -0.11428452 0.91479117
0.24681021 0.986019 -0.027352812 -0.23604539 0.011729455 -0.111893214 0.20049635 0.38105717
0.14436176 0.21470599 -0.24089299 -0.51861703 -0.5186745 0.19047806 0.6103112 0.12401008
0.6221716 0.38813484 -0.003525417 -0.39054862 -0.518176 0.040498357 -0.005041004 -0.17682311
-0.5180984 -0.39297622 0.0938638 0.34514922 0.114776894 0.05872969 0.1217493 0.49131978
0.057183042 0.32562816 0.2696316 -0.09766994 -0.0039264625 0.44833866 -0.09944172 -0.100693524
-0.24613509 -0.28366303 -0.23057856 0.55485713 0.33092412 -0.7671748 -0.86759543 0.7829458
0.63626003 0.696728 0.40561226 0.22420157 0.6004131 -0.90794736 -0.28530177 1.1838882
0.40548447 -0.13083751 0.25499362 -0.11409235 0.4877897 0.73659354 0.15897886 0.319473
0.3538512 0.27518824 -0.24688451 -0.0061849505 1.1165055 0.7755946 0.86473316 0.023348719
0.27628276 -0.058048144 -0.90824634 0.12950508 -0.8378509 0.10840418 0.27232203 -0.23625343
0.635146 -0.008257231 -0.6803895 0.22676088 -0.29903746 0.05479089 0.70611477 0.69794065
0.5432884 -0.24480817 0.30961692 0.26844552 0.53256285 0.17773034 -0.1847792 0.7687239
0.518812 -0.2737992 0.6654601 1.3558278 -0.658908 0.5235288 0.026195267 0.3181038
-0.26939568 0.40491787 0.16825506 -0.25748953 0.09958844 -0.64380693 -0.092956096 1.2104093
0.042259697 0.7702596 0.838139 0.9283119 0.67772746 1.0485778 0.4599674 0.08501386
0.12337037 -0.13695851 0.2721379 -0.25536808 -0.5444099 1.1180174 0.37178537 -0.5441886
-0.28035963 0.03912926 -0.54477394 0.99139816 -0.4070385 0.35860702 -0.26450795 -0.28897795
-0.54432535 -0.5455438 0.2658456 0.2555662 0.20079246 0.052464906 -0.086028285 0.44616276
0.72072583 0.8985495 -0.067760155 0.5045591 0.029177986 -0.13726735 -0.18034627 -0.5446253
0.081455685 0.2898709 0.29281548 0.12492037 -0.10381512 -0.75128245 0.5136423 0.15574993
0.20738643 -0.54423773 -0.5441007 0.45934346 0.79906255 0.33272755 -0.54366034 -0.105603844
0.4242377 0.06640626 -0.5442497 0.4218691 0.0019098928 0.4661199 0.47830492 -0.38314012
0.3709866 0.7250725 0.1275102 -0.05382363 0.3404217 1.1147231 0.019842632 -0.36551496
0.25255042 -0.012989088 1.2375246 -0.15071452 0.5428006 0.53453994 0.33308068 0.07145545
0.37523955 0.40849823 -0.2841967 -0.5209195 -0.937923 0.5310476 0.5059061 0.753149
-1.0717984 -0.24833746 0.8396207 -0.83606577 -0.40307805 1.4513705 -1.0915965 0.31076002
-0.3267692 0.19646335 0.5804099 0.7740149 0.7496626 0.7718419 0.76736623 0.7524083
-0.24443974 -0.071529865 0.6653571 0.34978956 0.48549873 0.07765107 -0.39316684 -0.3306545
00000000: e5f5 c1bc 2ace 97bd 8c3c 113f b961 593f
00000010: eefb 2fbe 53ca 9abe dcb2 04bf 8f3e 2a3f
00000020: 2fb0 8abd 0696 04bf 0781 813f e3d1 d8bd
00000030: 1b40 3f3e 1839 0a3f 588d 513f 40b2 713e
00000040: a55e 133f 2fad 5dbe ecbe 04bf 0614 613f
00000050: 1e34 fe3e fe8f 0b3f a9f8 fc3e 8b3e 35bd
00000060: 6636 8cbd 5767 93be 0a03 903e 3f9a 0f3e
00000070: c454 b0bc 4580 fcbd 010e eabd c12f 6a3f
00000080: d1bb 7c3e be6b 7c3f 0113 e0bc e2b5 71be
00000090: e62c 403c 4528 e5bd ea4e 4d3e ed19 c33e
000000a0: 92d3 133e e3db 5b3e a7ac 76be 16c4 04bf
000000b0: dac7 04bf ae0c 433e 5b3d 1c3f fff8 fd3d
000000c0: a346 1f3f 9cb9 c63e af0a 67bb fdf5 c7be
000000d0: 2fa7 04bf 9be1 253d 022f a5bb 1e11 35be
000000e0: 19a2 04bf 2e34 c9be aa3b c03d 66b7 b03e
000000f0: 2610 eb3d 8b8e 703d b257 f93d 448e fb3e
00000100: c438 6a3d bcb8 a63e 270d 8a3e 2d07 c8bd
00000110: 8ea9 80bb a58c e53e 1aa8 cbbd 6838 cebd
00000120: d60a 7cbe 483c 91be c91c 6cbe 1e0b 0e3f
00000130: e36e a93e 9165 44bf bc1a 5ebf 236f 483f
00000140: f0e1 223f c45c 323f 69ac cf3e 1995 653e
00000150: acb4 193f 3d6f 68bf 1313 92be a689 973f
00000160: a99b cf3e 45fa 05be 868e 823e 40a9 e9bd
00000170: 92bf f93e 6591 3c3f 5bcb 223e f791 a33e
00000180: fc2b b53e 79e5 8c3e 4bcf 7cbe 20ab cabb
00000190: a7e9 8e3f 5e8d 463f 275f 5d3f d045 bf3c
000001a0: ef74 8d3e e4c3 6dbd d582 68bf fb9c 043e
000001b0: 667d 56bf 0303 de3d cb6d 8b3e 6bec 71be
000001c0: ee98 223f 5649 07bc 022e 2ebf 0134 683e
000001d0: 701b 99be 6a6c 603d f0c3 343f 3dac 323f
000001e0: f314 0b3f feae 7abe 1c86 9e3e b171 893e
000001f0: 0a56 083f f1fe 353e c236 3dbe 17cb 443f
00000200: ddd0 043f 692f 8cbe 985b 2a3f c48b ad3f
00000210: 32ae 28bf fc05 063f 7597 d63c 80de a23e
00000220: 3bee 89be 6551 cf3e 0e4b 2c3e abd5 83be
00000230: 06f5 cb3d 88d0 24bf c45f bebd b1ee 9a3f
00000240: 8118 2d3d bc2f 453f 4790 563f d9a5 6d3f
00000250: 8c7f 2d3f cc37 863f d980 eb3e bf1b ae3d
00000260: 9ba9 fc3d da3e 0cbe a955 8b3e 9bbf 82be
00000270: 725e 0bbf 321b 8f3f a75a be3e f24f 0bbf
00000280: 4c8b 8fbe 0146 203d 4e76 0bbf 45cc 7d3f
00000290: 5a67 d0be 579b b73e 966d 87be ebf4 93be
000002a0: e858 0bbf c2a8 0bbf ea1c 883e 93d9 823e
000002b0: 8a9c 4d3e 71e5 563d 992f b0bd 726f e43e
000002c0: 7d81 383f 5707 663f d6c5 8abd c92a 013f
000002d0: ac06 ef3c d08f 0cbe b1ac 38be 906c 0bbf
000002e0: 3dd2 a63d f569 943e e9eb 953e 40d6 ff3d
000002f0: 069d d4bd 0c54 40bf 107e 033f e97c 1f3e
00000300: 1c5d 543e 2a53 0bbf 2f4a 0bbf 112f eb3e
00000310: 5d8f 4c3f 445b aa3e 532d 0bbf d446 d8bd
00000320: af35 d93e 0100 883d f353 0bbf 3aff d73e
00000330: 5e55 fa3a 44a7 ee3e 62e4 f43e f12a c4be
00000340: f5f1 bd3e 5a9e 393f 0992 023e 2b76 5cbd
00000350: c14b ae3e 3faf 8e3f 048d a23c c724 bbbe
00000360: 4a4e 813e 2fd0 54bc 3567 9e3f e854 1abe
00000370: fbf4 0a3f 9cd7 083f 8d89 aa3e 3c57 923d
00000380: 661f c03e ae26 d13e 3b82 91be fb5a 05bf
00000390: b91b 70bf bcf2 073f 1083 013f 5fce 403f
000003a0: b130 89bf 2d4c 7ebe 62f1 563f 6808 56bf
000003b0: 3f60 cebe 82c6 b93f 6fb9 8bbf f01b 9f3e
000003c0: 4b4e a7be b02d 493e be95 143f d725 463f
000003d0: e3e9 3f3f 6e97 453f 1d72 443f d59d 403f
000003e0: 694e 7abe 407e 92bd d854 2a3f 9e17 b33e
000003f0: 4a93 f83e 8607 9f3d 2a4d c9be 8c4b a9be

l1.bias f4 [8]
0.51719326 0.67835504 0.54279536 1.089389 0.90768003 0.4337092 0.9180935 0.8984332
00000000: c766 043f ada8 2d3f a3f4 0a3f 1971 8b3f
00000010: b85d 683f 220f de3e 2d08 6b3f b8ff 653f

l2.weight f4 [8, 8]
0.56244737 -0.23625742 -1.6131344 1.882477 -0.48171178 0.52988786 1.4369467 0.49829206
-0.004417209 2.085985 0.48213255 2.6008058 0.31724852 -0.48282683 -0.47289938 -0.13717124
-0.15516037 0.15064552 -0.23285472 -0.29353163 -0.074646145 -0.015882075 0.07518181 -0.1750337
-1.0181382 1.8483273 0.6394051 0.5410404 1.4032823 -0.4269539 -0.5420168 0.95033777
-0.37644896 0.93934566 1.3515879 -1.3161074 1.5747042 0.13187598 0.49307486 0.3708254
-0.6622092 -0.25803986 -0.6872379 -0.47925 1.1069266 -1.3451065 1.0449641 1.8453271
1.6930004 -0.5017901 1.2421516 -0.51074374 0.61946493 1.7157443 1.9112606 -0.541779
-0.151722 0.2364445 -0.25452608 -0.1837061 -0.015886575 -0.027395874 -0.1692746 0.065519124
00000000: 8dfc 0f3f 77ed 71be 307b cebf 02f5 f03f
00000010: eda2 f6be bba6 073f dfed b73f 2320 ff3e
00000020: 3cbe 90bb c780 0540 14da f63e 9a73 2640
00000030: 666e a23e 1435 f7be de1f f2be 9e76 0cbe
00000040: 5ce2 1ebe d242 1a3e 7871 6ebe c749 96be
00000050: 14e0 98bd 201b 82bc ecf8 993d 093c 33be
00000060: 5a52 82bf fd95 ec3f 0db0 233f a081 0a3f
00000070: c19e b33f b499 dabe 9dc1 0abf 5649 733f
00000080: ebbd c0be f578 703f d500 ad3f 3576 a8bf
00000090: e88f c93f 7f0a 073e 4f74 fc3e d4dc bd3e
000000a0: 8b86 29bf cd1d 84be d3ee 2fbf 4260 f5be
000000b0: c5af 8d3f 732c acbf 62c1 853f ae33 ec3f
000000c0: 3db4 d83f 5175 00bf d3fe 9e3f 1ac0 02bf
000000d0: 4195 1e3f 829d db3f 30a4 f43f 07b2 0abf
000000e0: 035d 1bbe 821e 723e 3e51 82be 741d 3cbe
000000f0: 9024 82bc 506d e0bc 5256 2dbe e42e 863d

l2.bias f4 [8]
0.6554264 0.85981864 -0.2615745 0.317225 -0.19364922 0.93062794 0.64501715 -0.20757617
00000000: 06ca 273f 131d 5c3f 18ed 85be 516b a23e
00000010: fb4b 46be a23d 6e3f d81f 253f d98e 54be

l3.weight f4 [12, 8]
-0.7823597 0.813472 -0.31784776 0.7997487 -0.19677402 -1.7000126 -2.6250055 0.112430125
-0.5543591 -2.2648864 -0.35070804 -2.1674898 0.4618529 -0.66436994 0.9738568 -0.1711994
-0.3255398 -1.1386739 -0.07148716 0.22234994 0.44211638 0.7130866 -0.51932764 -0.06131646
0.776212 1.052328 0.06701723 0.05634033 -2.531619 -2.0342731 -1.9667 -0.09582293
0.64529747 0.2402752 0.13948286 0.47455022 -0.76554704 0.7268689 -2.9624395 -0.22563782
0.9540089 0.664277 0.3268731 -0.9944025 -2.4485471 -2.2551742 -0.022856493 0.17331055
0.24224307 0.28463963 -0.04767692 -0.039918777 -0.4890715 -0.04355459 -0.11943801 0.042497963
0.88502824 -1.7317902 -0.122386515 -1.5764368 -1.740466 -1.7261502 0.9325024 0.22731033
-1.2224497 -0.17970474 -0.3332091 0.5267514 0.24454653 0.7780194 -1.0301905 0.20694467
0.6725138 -1.5583329 -0.26112306 -0.928256 -0.90601104 0.89141166 0.012455647 0.12628764
-1.6531217 -0.8088204 -0.21813354 0.10268052 0.6490775 -1.0908885 0.66883284 0.1939759
-1.60697 0.38146666 -0.066896826 0.58889085 0.30635232 -2.0543227 -0.36490345 0.115786165
00000000: ba48 48bf b33f 503f f1bc a2be 55bc 4c3f
00000010: 217f 49be 039a d9bf 1700 28c0 c441 e63d
00000020: 7aea 0dbf e6f3 10c0 0190 b3be 27b8 0ac0
00000030: fc77 ec3e 2614 2abf ae4e 793f e54e 2fbe
00000040: 27ad a6be 11c0 91bf dc67 92bd b4af 633e
00000050: 145d e23e d88c 363f a8f2 04bf f826 7bbd
00000060: d4b5 463f afb2 863f 5440 893d 1ec5 663d
00000070: 0c06 22c0 8831 02c0 d3bc fbbf d03e c4bd
00000080: 3732 253f b40a 763e 98d4 0e3e 3ff8 f23e
00000090: e4fa 43bf 1514 3a3f 9c98 3dc0 9a0d 67be
000000a0: ed39 743f 0f0e 2a3f e95b a73e 2a91 7ebf
000000b0: ffb4 1cc0 c654 10c0 8a3d bbbc 5278 313e
000000c0: 910e 783e 49bc 913e e048 43bd df81 23bd
000000d0: 9467 fabe 4c66 32bd ea9b f4bd 5812 2e3d
000000e0: 3691 623f 4dab ddbf c8a5 fabd aec8 c9bf
000000f0: 97c7 debf 7df2 dcbf 7ab8 6e3f 0ac4 683e
00000100: 3b79 9cbf 8504 38be 629a aabe 2ed9 063f
00000110: 686a 7a3e 482c 473f 48dd 83bf 4ee9 533e
00000120: dd29 2c3f 7477 c7bf ecb1 85be 2fa2 6dbf
00000130: 57f0 67bf 8e33 643f c512 4c3c 8c51 013e
00000140: 7e99 d3bf db0e 4fbf 665e 5fbe 2a4a d23d
00000150: f129 263f 3ca2 8bbf a138 2b3f 9ea1 463e
00000160: 31b1 cdbf 994f c33e 3401 89bd 8dc1 163f
00000170: 36da 9c3e 067a 03c0 a0d4 babe 4c21 ed3d

l3.bias f4 [12]
0.040055197 0.058728475 -0.30646065 0.012814622 -0.3771145 -0.17462537 -0.017389221 0.27995107
-0.34404862 0.087601766 -0.13089052 -0.41387537
00000000: eb10 243d 458d 703d 69e8 9cbe 6cf4 513c
00000010: 2715 c1be fed0 32be d773 8ebc bf55 8f3e
00000020: 2427 b0be 8e68 b33d 2a08 06be 79e7 d3be
