data.pth (torch, 4695 bytes, 6 tensors)

l1.weight f4 [8, 46]
000000 2f b7 cd 3e 9a 48 28 3e 6f 9c 52 bf 6f d5 71 3f
       0.4017882 0.16433945 -0.8226995 0.944663
000010 bd 7f 00 3f 97 c5 2a 3f b4 5f cc 3e eb 91 0f 3f
       0.50194913 0.6670775 0.39916766 0.5608203
000020 08 33 ae 3f 9b 95 4b 3e c5 8d 9a 3e d1 1e d8 3e
       1.3609324 0.19881289 0.30186287 0.4221101
000030 4a 6d e6 bc 0c c6 43 bd 92 1c 8e 3d 60 b7 65 3f
       -0.028128285 -0.047796294 0.06939043 0.89732933
000040 8a 86 7b be 32 17 5f be b6 0b 1f bd e3 e1 8c 3e
       -0.24563041 -0.21786192 -0.038829528 0.27516088
000050 35 b9 2f 3e 4d 14 51 3e 9d 3a 32 3f a2 d3 2e 3e
       0.17160495 0.204179 0.69620687 0.17072919
000060 06 7d 82 3e 65 73 66 be b4 66 33 3e 11 72 23 be
       0.2548601 -0.22504957 0.17519647 -0.15961482
000070 60 95 a1 be 51 6e 09 be cc cc 60 3f 4a ef d2 3e
       -0.31559277 -0.13420989 0.87812495 0.41198188
000080 ec 4f 1d 3f 7f 4b 38 be 7c 97 28 be c0 97 19 be
       0.61450076 -0.1799755 -0.16464037 -0.14999294
000090 25 cb c2 be 96 eb fc be 59 87 81 3e 62 dc d3 3d
       -0.38045612 -0.49398488 0.25298575 0.10344769
0000a0 a2 35 52 bf db 61 16 3f 87 56 0e 3f 57 e0 77 3f
       -0.8211309 0.58743066 0.5560078 0.9682669
0000b0 cc 0d 24 3f 5c 3f 72 3f fe 58 67 be aa 9f 89 3c
       0.6408355 0.9462793 -0.22592542 0.016799767
0000c0 09 1b e1 3e 14 c0 b0 be c7 97 0d 3f 1d 1b fd 3e
       0.4396594 -0.34521544 0.5530972 0.49434748
0000d0 08 f3 13 bf df 3f 1e 3f 60 fb dd 3c 34 7c 1d be
       -0.5779271 0.6181621 0.027097404 -0.15379411
0000e0 89 9b fd 3e 2e 85 c9 3e e9 a5 55 3e 02 d7 9f 3e
       0.49532726 0.3935942 0.20864071 0.31218725
0000f0 e9 0b c1 3e d1 b9 98 be a9 60 6b be 70 1a 99 be
       0.377044 -0.29829267 -0.22986092 -0.29902983
000100 0e 21 b5 3d e3 65 49 be f6 de ad 3c 83 07 82 3c
       0.08844195 -0.19667773 0.02122448 0.015872722
000110 03 32 d8 bd 55 9d 4f 3f a3 65 a3 3f f0 4d 35 3d
       -0.10556414 0.81099445 1.2765392 0.04426378
000120 90 b2 37 bc e5 f7 44 be 66 8a 2c bf ce 28 0e bd
       -0.011212006 -0.1923519 -0.6739868 -0.034706883
000130 50 c8 df 3d ec 42 fc bc b8 54 d9 3e 0c 87 45 be
       0.109268785 -0.03079363 0.42447448 -0.19289798
000140 77 d5 44 be 42 e9 1c bf 54 d0 49 3d 6d 40 a9 3d
       -0.19222055 -0.61293423 0.049270943 0.08264241
000150 10 04 1b bd 46 a2 ec be 63 96 38 bf ec d7 3e be
       -0.03784567 -0.46217555 -0.7210447 -0.18637055
000160 cb 75 38 be 32 4d 42 be 06 ed 50 be 5d 7f d8 be
       -0.18013684 -0.1897476 -0.20402917 -0.4228467
000170 d3 67 0b 3b 46 69 9a 3e b2 f5 96 3f 1e 68 03 bf
       0.00212716 0.30158442 1.179373 -0.51330745
000180 68 19 a6 3e f9 14 38 3f 1e 14 46 3f e9 28 37 3f
       0.32441258 0.71907 0.77374446 0.715468
000190 9e 81 68 bf f0 d5 98 3e 1c 2a e0 3e cf 0c ea 3e
       -0.9082278 0.2985072 0.43782127 0.45712897
0001a0 bb 08 5c 3d 0a ff 94 bc f3 f0 85 3d 51 ff 00 bf
       0.053719264 -0.018188018 0.06540098 -0.5038958
0001b0 70 93 33 3e c5 32 93 3e d1 98 0e be 4b 5c 93 3e
       0.17536712 0.28749672 -0.13925482 0.2878135
0001c0 77 39 26 3e 9d aa 02 3f 55 b6 ca be 79 84 40 3e
       0.16232859 0.51041585 -0.39592233 0.18800534
0001d0 b8 fd 1a bf 96 48 17 3e 26 91 02 3f 67 c0 2c 3e
       -0.60543394 0.14773783 0.5100273 0.1687027
0001e0 32 dd 13 3f b5 af c0 3e 6f af b2 bd 6e 05 e7 3e
       0.5775939 0.37634054 -0.087248676 0.4512133
0001f0 b6 53 45 3f c1 1d c5 3d 48 01 b5 3d 52 07 36 3f
       0.7708086 0.09624816 0.08838135 0.7110492
000200 24 7f bf 3e f9 54 db 3e 28 63 b3 3e fe 01 3b 3f
       0.37401688 0.42838266 0.35036588 0.73049915
000210 7b 0f 79 ba 14 87 90 bd 65 37 1c be 87 b1 a1 be
       -0.0009500903 -0.07057014 -0.15255506 -0.31580755
000220 40 2a f5 be ae 4c eb be 61 7b 1f 3f 0e 2e 1c be
       -0.47883797 -0.4595694 0.62297636 -0.15251943
000230 8e 79 39 3d 1d 62 1e 3f e6 e3 9a be 14 0b 29 bf
       0.04528194 0.6186846 -0.30251998 -0.6603253
000240 0e 3a 0e 3f b7 b2 0b bf d3 7c 37 3f 4f d6 83 3e
       0.55557334 -0.5456957 0.7167484 0.25749442
000250 e7 1a c6 be 8f e4 1f bf c9 c5 ac 3d 21 af 06 3e
       -0.386924 -0.6245813 0.08436162 0.13152744
000260 c4 2e 58 3d d6 1a 5a 3f e1 d0 35 3f 3f 72 10 3f
       0.052778974 0.851972 0.7102185 0.56424326
000270 5c 54 5d 3d 7d 30 d4 3e 98 8e cf 3e 83 72 d3 3e
       0.05403553 0.41443244 0.40538478 0.41298303
000280 b5 6c ce 3e 90 cb 09 be 87 60 24 bf 03 e2 d2 3e
       0.40317312 -0.13456559 -0.6420979 0.41188058
000290 ff de ff 3e 14 05 04 3f b4 32 24 3f 64 a1 3e 3e
       0.4997482 0.5157025 0.64139867 0.18616253
0002a0 a4 3a 1b 3f af 93 e8 3e d0 cd 20 bf b3 08 ec 3e
       0.60636353 0.45425174 -0.62814045 0.46100387
0002b0 1f 6c d6 3e 17 d3 16 3f de 02 55 3e 02 6f 0e bc
       0.41879365 0.5891585 0.20801875 -0.0086934585
0002c0 12 01 8c 3e 3d a6 38 3f c5 93 68 3f 49 ae 3b 3f
       0.27344567 0.7212866 0.9085048 0.73312813
0002d0 56 a0 f8 3e c7 31 20 3f 87 d7 ae 3e 40 51 2f 3f
       0.48559827 0.62575954 0.3414881 0.6848335
0002e0 08 e0 81 3e f7 7f 9e be 43 8d d4 3d b9 6b 21 3d
       0.25366235 -0.30957004 0.10378506 0.039409373
0002f0 18 5d 76 be 08 12 37 bf 90 4f 89 bd 4f 1d 36 bf
       -0.2405895 -0.7151189 -0.067046285 -0.7113847
000300 6f 61 a4 be 8d 96 d4 bd 99 df f2 be 73 94 27 bf
       -0.32105586 -0.10380278 -0.47436216 -0.6546089
000310 6f 32 20 3f e5 52 0c 3f 58 31 3a 3f e0 a0 84 bd
       0.62576956 0.54813987 0.7273154 -0.06475997
000320 cf c8 ca 3e e9 57 2d 3f 26 16 af 3d f0 b9 e4 3d
       0.3960633 0.67712265 0.08549146 0.11168277
000330 d2 ff 32 3e 09 2a eb 3e b9 27 a1 be f0 87 7a bc
       0.174804 0.45930508 -0.31475618 -0.015291199
000340 0c 1f aa be 6c 6c 1f 3e a2 85 ba 3e ad 91 de 3e
       -0.33226812 0.15568703 0.3643008 0.43470517
000350 66 a7 b6 3e 94 21 99 3e 9b f1 32 be 5a 8a 99 3e
       0.3567459 0.2990843 -0.17474978 0.29988366
000360 7f fe 36 bf 47 4e ad 3e 3a 00 a9 3e ad 1f 41 bd
       -0.7148208 0.33848783 0.33007985 -0.04714935
000370 f9 45 55 3e 21 d3 ca 3d ff 94 bb be 8e 20 6d be
       0.20827474 0.09903551 -0.36637112 -0.2315695
000380 c9 ec 39 3f 16 a5 b5 3e 98 f9 af 3e 8f 89 13 be
       0.7262693 0.35477513 0.34370112 -0.14407943
000390 77 12 86 be eb ff 67 bd d5 43 c9 3e b2 fd 1e 3f
       -0.26185963 -0.056640547 0.39309564 0.6210586
0003a0 f8 19 b3 be 89 15 11 3f 33 b0 f1 3e f8 f1 3a 3f
       -0.3498075 0.56673485 0.47204742 0.73025465
0003b0 5e 4b 46 3f 88 87 57 3f 5f 5d 82 3f e0 51 d5 3e
       0.7745875 0.8419118 1.0184745 0.41664028
0003c0 3d 9b 0a 3f 4e f0 6f 3f 76 cb d8 be 36 de d8 be
       0.54143125 0.9372605 -0.42342728 -0.42357033
0003d0 65 0e d5 be bd 90 0d 3f 32 c3 01 be 73 95 40 be
       -0.41612545 0.5529898 -0.12672117 -0.1880701
0003e0 b4 d5 ec 3d ae 8a 0d 3f 10 35 92 3e 4c e6 16 3f
       0.11564198 0.55289733 0.28556108 0.58945155
0003f0 f9 05 bd 3e c2 7e 09 be de 36 f2 3b 31 64 a2 be
       0.3691862 -0.1342726 0.0073917946 -0.31717065

l1.bias f4 [8]
000000 91 f9 67 3f 44 97 38 3f fa 96 76 3f 71 76 38 3f
       0.90615183 0.72105813 0.9632412 0.7205573
000010 05 13 37 3f 51 c6 d8 3e fd e5 44 3f a4 1e 42 3f
       0.71513397 0.42338803 0.76913434 0.75828004

l2.weight f4 [8, 8]
000000 38 ed a1 be 96 fc 64 bd 74 25 30 3f ab 35 3c 3f
       -0.31626296 -0.055904947 0.6880715 0.7351939
000010 bc b5 bb 3f 53 9c 9f bf 92 d7 9b 3e a3 57 89 be
       1.4664836 -1.2469581 0.30437905 -0.26824674
000020 c4 87 90 3d 5a 69 c8 3f b5 02 87 3f 3d f1 24 bf
       0.07057145 1.5657151 1.0547701 -0.644306
000030 38 43 c0 be 8f f0 6f bc f8 ad c9 3f 8e 8f db 3f
       -0.37551284 -0.014644756 1.5756216 1.7153184
000040 cd fc 9b be 05 f0 24 3e b7 4c a8 3f 52 28 08 be
       -0.3046631 0.16107185 1.3148412 -0.13296631
000050 da 2e 59 bf 7b 36 78 3f 8b 14 6a 3e a9 52 e0 be
       -0.84837115 0.9695813 0.22859399 -0.43813065
000060 72 59 96 be fc 4e 92 bd be b2 78 be ba 79 55 3e
       -0.29365116 -0.07143971 -0.24286935 0.20847216
000070 56 dc 80 be 88 3f 6d 3d 01 54 99 3e 9c ad 86 be
       -0.25168103 0.057921916 0.29946902 -0.26304328
000080 40 4c df 3f 50 8f 15 3f a8 b1 0e bf 34 03 0c 3f
       1.7445145 0.584218 -0.5573983 0.5469239
000090 4f 19 c1 be 7e 46 bd 3f a3 ca ac 3e e8 c3 c2 3f
       -0.3771462 1.4787138 0.3374835 1.5216036
0000a0 56 29 8e bf 30 47 d6 3e 1b 57 46 3f 9a 93 d1 3e
       -1.1106365 0.41851187 0.7747666 0.40932924
0000b0 d7 95 57 3f 4c 74 97 bf 8a b2 96 3f 22 09 56 3f
       0.8421301 -1.1832366 1.1773236 0.83607686
0000c0 bc 54 70 3e 3e 6b 57 be e2 df 93 3f d1 bb a8 3f
       0.23469824 -0.21037003 1.1552699 1.3182317
0000d0 23 3a c3 3f 2a 5f 67 be e5 97 1c be ae de 2d bf
       1.5252117 -0.22594896 -0.15292318 -0.6791791
0000e0 cb 6f c7 bc 85 f9 9d bf 46 07 5a 3f a8 77 bf 3f
       -0.0243453 -1.2341772 0.8516735 1.4958391
0000f0 94 91 22 3f ee 33 84 3f bd f0 0a bf a7 68 76 bf
       0.63503385 1.0328348 -0.5427359 -0.96253437

l2.bias f4 [8]
000000 5b 1e 55 3f be ac 00 3f fb 07 41 3e 66 dc 00 be
       0.83249444 0.50263584 0.188507 -0.12584075
000010 53 a8 5a 3f 72 03 3f bb 46 fc 55 3f 92 47 84 3d
       0.8541309 -0.002914634 0.83588064 0.064589635

l3.weight f4 [8, 8]
000000 61 c3 63 bf a4 e2 b4 bf 04 c8 de bf a8 4a 31 3d
       -0.8897 -1.4131665 -1.740479 0.04328409
000010 38 c8 17 3f 42 92 59 bf fb 08 3a 3b 6f ec ef 3e
       0.59289885 -0.84988797 0.00283867 0.46860072
000020 ed cf 86 3c 84 f6 31 3e eb 1b 32 3f d2 7c a3 be
       0.016456569 0.17379194 0.6957385 -0.31931168
000030 4f fa cd bf ec ae 2c 3f 2f cb d0 3d 6a 16 45 3e
       -1.6092013 0.6745441 0.10195004 0.19246832
000040 74 4d e7 be 2e ee 24 3e 6c 95 15 c0 d6 5e 3c 3e
       -0.4517628 0.16106483 -2.337245 0.18395552
000050 e1 ed 43 3f 06 d4 03 c0 fe 05 53 bf e7 63 10 bf
       0.7653485 -2.059816 -0.8243102 -0.5640244
000060 6a c0 69 bf 0c df c0 3e dc 4c a6 3f 14 c2 a3 bd
       -0.91309226 0.3767017 1.2992206 -0.07996002
000070 37 05 b2 3d 82 88 c0 bf 48 1b 4f bf b0 9d af bf
       0.08692401 -1.5041659 -0.80901 -1.3719997
000080 1d a1 3c 3f b8 ef 01 3e 62 64 bd bf cf e6 5e be
       0.7368334 0.12689102 -1.4796259 -0.21767734
000090 a4 1c 41 be 9c 0e 3c 3e 1e 87 e2 3e f5 8e a2 bf
       -0.18858582 0.18364948 0.4424371 -1.2699877
0000a0 d2 68 97 be fe 0e 14 3f 9c 60 b6 bf 29 71 02 be
       -0.2957216 0.57835376 -1.4248233 -0.1273848
0000b0 5a 2d d9 3d 6d 23 c0 3e 05 8f e0 bf 83 bc b5 bf
       0.10604353 0.37527028 -1.7543646 -1.4198154
0000c0 77 45 a3 bd 55 78 46 bf b2 5c 73 3f 14 07 a2 bd
       -0.07972234 -0.7752736 0.95063317 -0.07911506
0000d0 2f 42 c5 be f1 37 b6 bf 0b a0 e4 3e 5c 7f 18 3f
       -0.38527057 -1.4235822 0.44653353 0.59569335
0000e0 40 8b 14 3f 39 26 93 bf 61 3b db bf 80 8a 41 3d
       0.5802498 -1.149604 -1.7127496 0.047251225
0000f0 d6 af 8e bf 19 9e 11 3f 8f 5e 0b 3f 54 54 0f 3f
       -1.1147411 0.5688186 0.5444116 0.5598805

l3.bias f4 [8]
000000 aa c2 09 3e 8a 18 f0 be 7b 78 33 be d5 d2 8e 3e
       0.13453165 -0.46893722 -0.17526428 0.27895227
000010 12 12 f2 3e e7 7a 4c be 3b 5a c3 bd a2 dc 81 bd
       0.47279412 -0.19968759 -0.095386945 -0.063409105
